artifacts/alphabetnet/alphabetnet.torchscript.pt (torch, 694824 bytes, 7 tensors)

weight f4 [14, 96]
000000 00 00 00 00 00 00 00 00 00 00 00 00 00 00 00 00
       0.0 0.0 0.0 0.0
000010 00 00 00 00 00 00 00 00 00 00 00 00 00 00 00 00
       0.0 0.0 0.0 0.0
000020 00 00 00 00 00 00 00 00 00 00 00 00 00 00 00 00
       0.0 0.0 0.0 0.0
000030 00 00 00 00 00 00 00 00 00 00 00 00 00 00 00 00
       0.0 0.0 0.0 0.0
000040 00 00 00 00 00 00 00 00 00 00 00 00 00 00 00 00
       0.0 0.0 0.0 0.0
000050 00 00 00 00 00 00 00 00 00 00 00 00 00 00 00 00
       0.0 0.0 0.0 0.0
000060 00 00 00 00 00 00 00 00 00 00 00 00 00 00 00 00
       0.0 0.0 0.0 0.0
000070 00 00 00 00 00 00 00 00 00 00 00 00 00 00 00 00
       0.0 0.0 0.0 0.0
000080 00 00 00 00 00 00 00 00 00 00 00 00 00 00 00 00
       0.0 0.0 0.0 0.0
000090 00 00 00 00 00 00 00 00 00 00 00 00 00 00 00 00
       0.0 0.0 0.0 0.0
0000a0 00 00 00 00 00 00 00 00 00 00 00 00 00 00 00 00
       0.0 0.0 0.0 0.0
0000b0 00 00 00 00 00 00 00 00 00 00 00 00 00 00 00 00
       0.0 0.0 0.0 0.0
0000c0 00 00 00 00 00 00 00 00 00 00 00 00 00 00 00 00
       0.0 0.0 0.0 0.0
0000d0 00 00 00 00 00 00 00 00 00 00 00 00 00 00 00 00
       0.0 0.0 0.0 0.0
0000e0 00 00 00 00 00 00 00 00 00 00 00 00 00 00 00 00
       0.0 0.0 0.0 0.0
0000f0 00 00 00 00 00 00 00 00 00 00 00 00 00 00 00 00
       0.0 0.0 0.0 0.0
000100 00 00 00 00 00 00 00 00 00 00 00 00 00 00 00 00
       0.0 0.0 0.0 0.0
000110 00 00 00 00 00 00 00 00 00 00 00 00 00 00 00 00
       0.0 0.0 0.0 0.0
000120 00 00 00 00 00 00 00 00 00 00 00 00 00 00 00 00
       0.0 0.0 0.0 0.0
000130 00 00 00 00 00 00 00 00 00 00 00 00 00 00 00 00
       0.0 0.0 0.0 0.0
000140 00 00 00 00 00 00 00 00 00 00 00 00 00 00 00 00
       0.0 0.0 0.0 0.0
000150 00 00 00 00 00 00 00 00 00 00 00 00 00 00 00 00
       0.0 0.0 0.0 0.0
000160 00 00 00 00 00 00 00 00 00 00 00 00 00 00 00 00
       0.0 0.0 0.0 0.0
000170 00 00 00 00 00 00 00 00 00 00 00 00 00 00 00 00
       0.0 0.0 0.0 0.0
000180 1f af 43 bf cf 0d 63 3e 8c 4d 86 3e 5a bd 0b bd
       -0.7643909 0.22173236 0.2623104 -0.034116127
000190 75 f6 53 3e 69 0a 68 3e 8a 90 ab 3e bf 2c 0d be
       0.20699485 0.22660221 0.33508712 -0.137866
0001a0 eb f2 1b be 9c 90 9c 3e d4 6e 48 3e 7c bf ab 3c
       -0.15229385 0.30579078 0.19573528 0.02096533
0001b0 ef 4e 9c 3d ca dc fe 3e 2f 2c 0f bd 80 95 ce bd
       0.07632243 0.49777824 -0.034954246 -0.100871086
0001c0 bc e7 c8 be a9 9f 39 bd 30 65 80 be 4e 8e 65 3e
       -0.392393 -0.04531828 -0.250772 0.22417566
0001d0 e8 46 4e 3e 01 3d 6c 3c ed bc 33 be a9 ba 38 3e
       0.20144236 0.014418841 -0.17552538 0.18039955
0001e0 2b b8 37 3d 42 33 6d 3d 8a b6 eb 3d 5a 6d ab 3e
       0.04485337 0.05791021 0.11509426 0.33481866
0001f0 30 d4 d5 3e e5 3b 01 3e 6b 27 61 3e 00 d9 10 3e
       0.4176345 0.12620504 0.21987693 0.14145279
000200 c9 42 44 3f 0e 30 d8 3e fb 7e 1c bf 6d a4 d1 be
       0.76664406 0.42224163 -0.61131257 -0.4094576
000210 97 e5 56 bd 80 30 1b 3f b0 99 b3 3e ce a0 70 3e
       -0.052465048 0.6062088 0.35078192 0.23498842
000220 3f 22 8d 3e 1e 20 eb 3a 67 18 37 bf 2a d0 a5 3e
       0.2756519 0.0017938649 -0.7152161 0.3238538
000230 8d 0a 2e be cf 85 e5 3e e9 57 74 be 0d fe 5e 3e
       -0.16996212 0.4482865 -0.2386166 0.217766
000240 ad f5 bd be 62 05 98 3e 9c 6d 04 3f 15 cb 22 3f
       -0.37101498 0.29691607 0.5172975 0.6359113
000250 f3 98 e7 3d 0b c1 ee bd 23 7c 92 be 8a 4a 5e 3c
       0.113084696 -0.11657914 -0.28610334 0.013567576
000260 d0 5b 1d 3e f4 4d c5 3e 26 ed 1e be a3 2d 2b 3f
       0.15367055 0.38536036 -0.15520152 0.6686651
000270 4b ea 35 bf 1c 87 f1 bd 93 1d df be b0 f9 a0 3e
       -0.7106063 -0.11793348 -0.4357725 0.31440496
000280 9b 8a 6e bf da 3a 28 3d b4 64 b4 bb 9d 4f d9 bd
       -0.93180245 0.04107175 -0.005505169 -0.10610888
000290 fd de df 3d 09 97 78 be bb db 26 3d 03 48 c6 be
       0.109312035 -0.24276365 0.040736895 -0.38726816
0002a0 35 d3 10 bf 3b 10 15 3f dc 0f ce 3e 66 1e e7 3d
       -0.56572276 0.5822789 0.40246475 0.11285095
0002b0 18 d5 0f bf 68 20 70 3e 9c 15 8e 3e 7c 1e 82 3f
       -0.5618453 0.23449862 0.27750862 1.0165553
0002c0 5f 25 03 3d 3d ec 7f 3d 38 31 ad be 6f d0 13 be
       0.03201806 0.062481154 -0.33826613 -0.1443498
0002d0 a7 55 93 be 01 14 1c bf 9c cf d2 be e0 e4 5b be
       -0.28776285 -0.60968024 -0.41174018 -0.21474028
0002e0 6f c5 5d be f1 73 0f bf 15 1d 1a bf 40 ab e9 3c
       -0.21657346 -0.5603629 -0.60200626 0.028524041
0002f0 53 38 c5 3e b9 30 41 be 39 b3 51 3e 60 ba 3a 3e
       0.38519534 -0.18866242 0.20478524 0.18235159
000300 9f 45 23 3f 75 8e 09 bf 89 74 c2 3e 0c 74 21 be
       0.6377811 -0.53733 0.37979534 -0.15766925
000310 74 19 20 bf 92 b8 16 3e 11 83 02 3e 7c 78 f4 3e
       -0.6253884 0.14718845 0.1274531 0.47748172
000320 1d 65 49 3e 8f 29 85 3f 3c 14 61 be 92 8d 92 be
       0.19667478 1.0403308 -0.21980375 -0.28623635
000330 62 a2 f3 3d 37 b8 cd 3e df 84 1a 3f 14 39 6b 3e
       0.118962064 0.40179607 0.60358995 0.22970992
000340 73 a4 80 be 92 35 ec be a8 73 8e be 07 45 77 be
       -0.25125465 -0.4613462 -0.27822614 -0.24147426
000350 27 94 97 3d 2b db 48 3e 76 ba 9d bd 49 b1 70 bf
       0.07401305 0.19614856 -0.0770158 -0.94020516
000360 6b e7 45 be 48 d1 c9 3e b8 44 59 bf f2 eb 39 3f
       -0.1932656 0.3941748 -0.8487048 0.7262565
000370 ce 48 0c 3e 2d d8 f8 bd 50 28 d1 3e ec 9d 3d 3f
       0.13699648 -0.12150607 0.40851068 0.74069095
000380 6c e9 21 3c 5f a0 2f 3f 76 46 b7 3d 28 58 ff be
       0.009882312 0.6860408 0.08948986 -0.49871945
000390 97 d4 6f be 0a 5f 16 3d 7b be 45 3e ee 42 38 3f
       -0.2342094 0.03671173 0.19310944 0.71977127
0003a0 57 04 05 bd 18 9e 9a be df 05 81 bf 3e 5e 05 bf
       -0.032474842 -0.3019874 -1.0079917 -0.5209693
0003b0 5a 10 21 bc 7f 65 0a 3d f8 17 9d 3d db 7e 43 3e
       -0.009830559 0.0337882 0.07670587 0.1909136
0003c0 aa 7a da be c9 e1 8e 3d a1 b0 0e be a2 48 80 3e
       -0.4267171 0.06976659 -0.13934566 0.25055414
0003d0 93 b3 6f be 2b 96 7e bd be 7d 33 be ac 4a 04 3f
       -0.23408346 -0.06215493 -0.17528436 0.5167644
0003e0 2c c0 21 3f a1 67 bb be d8 08 b6 3e 4b 15 8d 3e
       0.63183856 -0.366025 0.35553622 0.27555308
0003f0 f5 41 37 3e 99 2d 6b 3e 76 65 2a 3e 3d b1 61 3d
       0.17896254 0.22966613 0.16640267 0.05510067

weight_ih_l0 f4 [576, 96]
000000 14 a7 da bc 9f bf 9e bb 20 67 e1 3b 9a 5e 98 3c
       -0.026690997 -0.0048446204 0.0068787485 0.018599797
000010 e3 de 77 3c fc 5e 80 3c 44 eb a0 3c 75 f4 32 3c
       0.015128824 0.015670292 0.019643433 0.010922541
000020 d1 c8 39 3c 98 62 11 3b a7 6f c4 3b b4 11 68 3c
       0.011339382 0.002218401 0.0059947553 0.014164377
000030 57 93 38 3c 1e 8d e4 bb c6 72 bd 3b 7f e0 7a 3c
       0.011265597 -0.0069748303 0.0057815043 0.015312313
000040 9e a7 77 bc f3 98 93 3a 2f c9 15 bc a2 d5 0f bc
       -0.015115647 0.0011260792 -0.009142204 -0.008778961
000050 d1 a9 5c 3c 21 74 67 3c 2e 35 80 3c 1a be 06 bd
       0.013468222 0.014126808 0.015650358 -0.03289614
000060 49 62 b7 3c d8 78 2f 3d c9 58 1e bc f7 0d ab bc
       0.022385733 0.042839855 -0.009664723 -0.020880682
000070 2b 64 5e bc 6d ac 5e bc 24 ed 61 3a 49 a7 2e bc
       -0.013573687 -0.013590914 0.00086184056 -0.010660001
000080 38 cc ba 3c 0a 3b 11 bc de 0b a3 3c 86 33 09 bb
       0.022802457 -0.008864174 0.01990312 -0.0020935251
000090 f4 9a 8d bc d0 e7 37 bb 55 38 2d 3c 15 c0 83 3c
       -0.017285801 -0.0028061755 0.010572513 0.016082803
0000a0 de de aa bb e4 af 51 ba 94 d2 ee ba 85 7b 0d 3c
       -0.005214556 -0.0007998927 -0.0018220716 0.008635406
0000b0 e8 df e3 3c 92 c9 45 3c 97 6d c4 3c 0c c4 9e 3b
       0.027816728 0.012071984 0.023978038 0.004845148
0000c0 51 1a 81 bc 01 c2 91 3c f8 4b dc bb 56 6a af bb
       -0.015759619 0.017792704 -0.0067229234 -0.0053532524
0000d0 7a db 82 bb e7 b5 18 3d 6d 07 50 3c 7e 13 ac 3c
       -0.003993449 0.03728285 0.012697083 0.021005388
0000e0 20 90 e6 bb c1 7b 15 3a ee 99 ba bc cf 59 11 3c
       -0.007036224 0.00057023397 -0.022778478 0.00887151
0000f0 c6 25 28 bc 6a 19 83 bc a4 39 7b bc ba 5b 26 3b
       -0.010262912 -0.01600333 -0.015333567 0.0025384263
000100 19 41 1d 3d 28 b4 27 ba 36 14 f5 3b 4b 1a d7 bc
       0.03839216 -0.000639739 0.007479216 -0.026257655
000110 d2 56 69 3c 29 d6 7b 3c bb 4c cb 3b 3e 3e 97 bc
       0.014241891 0.015370884 0.0062042153 -0.018462297
000120 68 e7 f6 bc fc ed c7 3c 25 2e 9a bc fa 99 28 bd
       -0.03013964 0.024405472 -0.018820832 -0.04116247
000130 d6 e5 e9 3c e9 2e a0 3b 6c ca 6c 3c ec 21 69 bb
       0.028551977 0.0048884046 0.014452558 -0.0035573198
000140 c3 38 ec bc cc 82 26 bd 19 bd d3 bb 79 86 10 bc
       -0.02883566 -0.04065208 -0.006461751 -0.008821123
000150 90 d2 58 bb 0a a4 57 bb 4e 72 fb bb c9 70 06 bb
       -0.003308449 -0.0032904171 -0.0076735383 -0.0020514003
000160 d0 be ca 3a 69 66 93 bb 47 b4 92 bc cf 83 8e 3b
       0.0015468244 -0.004498292 -0.017908229 0.004349209
000170 78 5b af ba 63 67 48 3c 18 a9 8b 3a c7 e4 48 bc
       -0.00133787 0.012231681 0.0010655252 -0.012261576
000180 e1 1e 60 3d eb 7e 9c bd 76 4c 68 3c e9 33 a3 bc
       0.05471695 -0.07641395 0.014178386 -0.019922214
000190 c3 90 3e 3c db 0e 93 bc dc 62 8a bc c3 38 cf bc
       0.011631194 -0.01795142 -0.016892843 -0.02529562
0001a0 1f 79 8c bc e0 ff 49 3c 2e 03 fc 3c cb ad c0 bb
       -0.017147599 0.012329072 0.030763235 -0.0058800927
0001b0 52 80 07 3d fe 7a 1a 3c 9d bd ff bb 9b a1 30 bd
       0.03308136 0.009428738 -0.007804586 -0.04312287
0001c0 a6 6c fb 3c 68 0b 2a bc 26 88 85 bc 7c af ff bc
       0.030691456 -0.010378696 -0.016300272 -0.031211607
0001d0 b0 19 bf bc 81 b9 f3 bb c7 1c 77 3c 6f be cf 3a
       -0.023327678 -0.0074378853 0.015082545 0.00158496
0001e0 6f 6c 6c bd a7 fe 20 bc 3b 07 93 bc 7d cc 8e 3d
       -0.057720598 -0.009826339 -0.017947784 0.06972597
0001f0 5c 35 58 3c 96 f0 cd 3b d0 e0 28 3d 9c 75 54 3d
       0.013196316 0.0062847836 0.041230023 0.051869974
000200 88 cc 31 3c 5c af 98 3c 55 cc 48 bc 5b 5a aa bc
       0.010851987 0.018638305 -0.012255748 -0.020795038
000210 c7 b9 c5 bc 52 0b be 3c 95 e0 88 bc 7e 53 21 bc
       -0.024136437 0.023198757 -0.016708652 -0.009846566
000220 00 59 d0 3b d7 e4 76 3c bb ca 1c bd 0b 38 68 bc
       0.006358266 0.015069208 -0.038279276 -0.014173518
000230 0b 62 42 3c a5 a0 12 bd 38 70 1a 3d 56 dc d5 3c
       0.011864196 -0.035797734 0.037704676 0.02610604
000240 0f 96 fd 3b 13 49 dc 3b db 3d 9e bb a4 5e 27 3c
       0.0077388356 0.0067225783 -0.004829151 0.010215435
000250 ed 5a b1 3c b7 8e 15 3c 92 9d 62 3b 0b 5a 0a bc
       0.021649802 0.009128264 0.0034578783 -0.0084443195
000260 2b e6 f8 3c a8 28 a7 3b ec aa 56 3d cf c6 6c bc
       0.03038319 0.005101282 0.052409098 -0.014451697
000270 e9 e4 6d 3c a4 b9 63 3c 3f a8 f1 3c ca ad 4e bc
       0.014519908 0.013899241 0.029499171 -0.012614677
000280 5e 95 90 bd e3 40 03 3d c6 72 21 3d 29 2a d2 3a
       -0.070597395 0.032044303 0.039416097 0.0016034293
000290 dc 1f 4d bd b0 51 22 bd 44 78 4f bc ae ec 90 3a
       -0.05007921 -0.039628685 -0.012662951 0.0011056864
0002a0 5d fa 6e bb b2 f7 88 3c 8b 80 39 3c 98 89 39 3d
       -0.0036465146 0.016719673 0.011322151 0.045297235
0002b0 81 63 02 bc c2 17 5c bc 05 64 32 bd 75 ec 47 3d
       -0.007958294 -0.013433399 -0.043552417 0.048809487
0002c0 c6 69 28 3b 87 56 11 3d 4b f3 fa bc 5d 45 08 3d
       0.0025697812 0.03548291 -0.03063359 0.033269275
0002d0 da e3 2f 3d 13 9d 05 3b d1 ac ec 3c 46 20 f5 3c
       0.042941906 0.0020387813 0.028890999 0.029922616
0002e0 37 aa 3d 3c c5 d4 3c 3c e9 b3 ba 3b 81 f8 4e bc
       0.011576227 0.011525338 0.0056977165 -0.01263249
0002f0 a6 e2 b0 bc c8 65 40 bc 44 05 5b 3c e3 b2 b1 3c
       -0.02159245 -0.011743017 0.013367955 0.021691745
000300 88 c9 99 bb cc d7 d3 bb 19 12 f7 bb 6b 9f 04 bc
       -0.004693214 -0.006464934 -0.007539999 -0.008094649
000310 7e c4 8d 3b c5 42 04 bc 9b c9 d9 3b 7e 63 f2 b9
       0.004326402 -0.00807256 0.0066463477 -0.00046231964
000320 3e 32 63 bc 76 60 9c bc 58 b3 e0 3c eb 1d 18 3c
       -0.013866959 -0.019088965 0.027429268 0.009284477
000330 d4 ba 15 bc 20 0d e1 bb 25 93 01 bd fc 79 8a bc
       -0.009138782 -0.0068680197 -0.03163447 -0.01690387
000340 eb 56 4b 3c e8 1c 3f 3c b0 54 c3 bb 35 06 c7 3c
       0.01241086 0.011664607 -0.0059610233 0.024294952
000350 36 2c f2 bb 8d d6 52 3a a0 98 93 3b 0e 4e 2d 3c
       -0.0073905243 0.0008042835 0.0045042783 0.010577692
000360 29 e3 35 3c c8 39 84 3c ac 95 ce 3c 31 6d e7 bb
       0.0111015225 0.016140833 0.025217853 -0.007062577
000370 a4 46 1b bb a8 7a f6 3b 2a db f5 bb 09 6c 98 bc
       -0.0023693228 0.007521946 -0.007502933 -0.018606203
000380 5b 19 5b bb 91 4e 41 bc 80 b5 85 bb c3 99 32 3c
       -0.003343186 -0.011798517 -0.0040804744 0.010900917
000390 ec 11 45 bc 23 90 05 3c f8 bd 60 3c 31 08 0c 3b
       -0.012028199 0.008152041 0.013717167 0.0021367187
0003a0 3b 77 f9 39 e5 94 30 3c 8d fd 33 3c 2b 99 82 3b
       0.00047581815 0.010777687 0.010985744 0.003985544
0003b0 6f 3a b5 3b c7 28 70 bc a0 41 f1 3c 78 41 30 bb
       0.0055306475 -0.01465816 0.029450238 -0.0026894491
0003c0 76 2a 06 3c e6 7f c3 3b de e4 17 bc 1d 36 a1 bc
       0.008188834 0.0059661744 -0.009270875 -0.019679124
0003d0 db bd 36 3c 1c c4 96 3c 51 ba 83 3c 75 60 95 bc
       0.0111536635 0.01840406 0.016080054 -0.01823447
0003e0 ff ea fb bb 2c 13 6f 3c 20 ac 75 3b e9 62 b8 bc
       -0.007687926 0.014591973 0.0037486628 -0.022508102
0003f0 45 de c9 3a 71 e8 30 bc 38 e9 80 bc e3 a5 1c 3b
       0.0015401324 -0.010797606 -0.015736207 0.0023902587

weight_hh_l0 f4 [576, 192]
000000 9a 1d 3c 3d 60 68 fc ba 23 72 60 bc c0 07 e6 b7
       0.045926668 -0.001925718 -0.013699087 -2.7421745e-05
000010 76 0a 1a 3d 9d a4 3c 3b 5e f4 92 bc f8 f0 53 3c
       0.037607633 0.002878464 -0.017938789 0.012935869
000020 dd aa 24 bd f3 43 b7 bb e6 b3 75 bb 1f 06 8e 3b
       -0.04020201 -0.005592817 -0.003749126 0.004334226
000030 71 cc 8c bc 1f 07 55 3c 18 e7 25 bd 14 c4 b3 bc
       -0.017187329 0.013002186 -0.04050359 -0.021944083
000040 16 a5 62 bc 5d d6 34 3c c8 71 8b 3c 0f f5 c1 bc
       -0.013833305 0.011037436 0.017022029 -0.023676423
000050 0b 25 ba 3c 6c 50 50 bc 52 4f b4 3c c6 3f 2c 3d
       0.022722742 -0.012714487 0.02201048 0.042053007
000060 82 7f 24 3d f1 aa ec 3b a1 ca a6 bc b7 f9 b7 3c
       0.040160663 0.0072225262 -0.020360293 0.02245794
000070 83 c1 a9 3c 3a 8d 97 bc 19 4d 23 bd 62 8d 65 bb
       0.020722156 -0.01849996 -0.039868448 -0.0035026898
000080 d0 52 4b bc 8e a7 cb 3a 39 b5 4b bd 61 d1 a7 3b
       -0.012409881 0.0015537606 -0.049733374 0.0051213955
000090 71 4f 4a bc 42 06 e2 bc b8 03 26 3c a6 f4 15 bd
       -0.012348042 -0.027590875 0.010132723 -0.036610268
0000a0 51 9b 25 3c ba 59 2f bb 88 ec 26 bd 77 be e3 3b
       0.010107831 -0.0026756362 -0.040752918 0.0069501954
0000b0 7a 10 db bc 98 e8 0b bd 00 9b a6 3b fc ae e3 3c
       -0.026741255 -0.034157366 0.0050843954 0.0277934
0000c0 0d 61 3d bc 08 d0 1d 3b 8b 60 5f bc bc cd e9 3c
       -0.011558783 0.0024080295 -0.0136338575 0.028540485
0000d0 a8 c4 6f bb 7b f3 4e bd ed ec c9 3c a7 80 22 bd
       -0.0036585722 -0.05052517 0.024649108 -0.039673474
0000e0 f1 db f4 bb 4a d5 36 bc 52 80 4c bc 3d f5 2b 3d
       -0.007472508 -0.0111592505 -0.012481766 0.041981924
0000f0 d8 78 24 bd 27 4c 28 bd b0 9b 05 bc 6e de 1f bc
       -0.040154308 -0.04108825 -0.008154795 -0.009757621
000100 49 4e b9 bc 62 42 cd 3c ba 82 8e 3c 69 ce 89 3c
       -0.022620337 0.025056068 0.01739632 0.016822057
000110 91 8c 94 3c 19 ff b9 3c a4 d8 5b bb ac d4 c7 3b
       0.018133434 0.022704648 -0.0033545876 0.0060983505
000120 d2 ab cc 3c 56 fd 9c bc b9 1c 91 3c 38 3e 22 bc
       0.024984274 -0.019163769 0.017713891 -0.009902529
000130 82 9e 7b 3c c9 05 ca bc e8 b5 c9 bc 1a b5 1f bb
       0.015357615 -0.024660962 -0.024622872 -0.002436942
000140 2d f4 52 bc 93 91 51 bc 93 98 b0 3c 8c 55 34 3b
       -0.012875599 -0.012791055 0.021557128 0.002751681
000150 2e 21 81 3c 21 2a 9e 3c 2f 54 3c bc 56 30 55 bc
       0.015762892 0.019307198 -0.01149468 -0.0130120125
000160 0f 4a b4 3c a6 42 d1 3a d3 e6 a8 ba 1b dc 05 bd
       0.02200797 0.0015965297 -0.0012886174 -0.032680612
000170 fa 71 2a bd d1 b5 92 bb 28 b7 aa 3c ba 47 72 3c
       -0.041612603 -0.0044772406 0.020839289 0.014787609
000180 0c e9 09 3d 13 17 5f 3c 90 86 2c 3c 02 22 02 3d
       0.033669516 0.013616341 0.010530129 0.031770714
000190 b7 51 be bc 27 c5 fe bb 33 89 a1 bc 79 fd 0b bd
       -0.023232324 -0.0077749672 -0.019718742 -0.034177277
0001a0 e2 e6 e3 3b 7a 57 89 3b 38 3c e3 3b 80 eb 29 bb
       0.0069550136 0.004191336 0.006934669 -0.0025927722
0001b0 8a 2a 47 3c bb 80 2f bc 66 94 87 3c 6c cb ba 3b
       0.012156138 -0.010711844 0.016550254 0.0057005193
0001c0 ca e9 00 bc 5d 2b f8 bb 6c 75 c8 bc 3c e3 a5 3c
       -0.00786824 -0.0075735287 -0.024470054 0.020249955
0001d0 57 93 a0 3c 29 e6 ef bc f3 b9 db 3c 01 83 07 bc
       0.019601507 -0.029284554 0.026822066 -0.00827098
0001e0 86 b0 53 3c 36 01 c5 3c df 8a 04 3d ab 45 3f bd
       0.012920504 0.024048429 0.032359 -0.0466973
0001f0 d2 b3 1f 3b 74 b5 c8 bc e2 2b 86 bc 04 86 07 bd
       0.0024368656 -0.024500586 -0.016378347 -0.03308679
000200 d8 d1 27 bc f2 79 2a bb d4 dc 44 bc 01 5b e7 bc
       -0.010242902 -0.0026012626 -0.01201554 -0.028241636
000210 fb d9 d5 bc 8c 9c b0 3b 5e 38 2a bb c0 be e3 bc
       -0.026104918 0.0053897556 -0.002597354 -0.027800918
000220 51 46 3b 3b 63 b7 ca 3c 67 23 bb 3c e8 b2 15 3c
       0.0028575847 0.024745649 0.02284403 0.009136893
000230 ef b1 ba 3c 18 c5 ff bb 96 17 b1 bc f4 66 28 3c
       0.022789923 -0.007805478 -0.021617692 0.010278452
000240 96 80 56 bd 7c e5 d6 b9 5a 4b b7 3c e0 96 33 bc
       -0.052368723 -0.0004098824 0.022374798 -0.010961264
000250 18 64 a8 bc c5 0a 06 3d a3 46 be bc b5 da 5b bc
       -0.02055554 0.032725114 -0.023227042 -0.013418843
000260 18 af 5b ba 19 e2 64 bc 76 ce 85 3c af 13 24 bc
       -0.0008380278 -0.0139699215 0.0163338 -0.010014459
000270 90 8f cf 3b ff f1 94 3c a5 0a 9b 3c 5a 6a 5e bc
       0.0063342527 0.018181799 0.018925974 -0.013575161
000280 53 2b 58 3c d3 99 77 3c e4 5f 9d 3c a8 ac 02 3d
       0.013193923 0.015112358 0.019210763 0.03190294
000290 a2 77 fd bc 66 d7 3c 38 ef 7c 91 3c 88 c5 bc bb
       -0.030940834 4.50233e-05 0.017759768 -0.0057608522
0002a0 38 f6 1e bd e8 22 fb bc 79 7c 06 bd e0 b0 86 bc
       -0.03880903 -0.030656293 -0.03283355 -0.016441762
0002b0 2e 61 7e bc b8 f1 ca 3b 8d 49 3e 3b a0 43 bb bc
       -0.015526099 0.006193366 0.002903554 -0.022859395
0002c0 f9 ab 33 bc 75 6c da bc d2 f6 7f 3c 31 ac c7 ba
       -0.010966294 -0.026663044 0.015622811 -0.0015233812
0002d0 7a 73 d5 bb 0e 38 93 3c ad 73 97 bb 1b 75 f2 bc
       -0.00651401 0.017971065 -0.004621944 -0.029596856
0002e0 e5 43 62 bb c7 4c 32 bc 4e f0 0b bd 23 ae 1d 3d
       -0.0034525332 -0.010882563 -0.03416472 0.038496148
0002f0 f1 2b 67 bc 80 a8 08 bb 13 9f fb bc 93 41 82 bc
       -0.014109598 -0.0020852387 -0.030715501 -0.015900409
000300 93 e5 51 3c d1 34 28 bc 82 a4 48 3c 0c 15 e7 3a
       0.012811082 -0.010266499 0.012246253 0.0017630174
000310 de 5b 56 3c 7b f9 77 bc 71 f8 98 bb 6b cd 12 3c
       0.013083426 -0.015135164 -0.0046682884 0.008960108
000320 60 6a 21 bc 77 a3 98 3b 2e 77 57 bb cf 63 c4 bb
       -0.009852022 0.0046581584 -0.0032877433 -0.0059933434
000330 2e 0f f4 bc e0 bd d1 b8 b1 5e 85 3a 07 96 aa 3c
       -0.029792394 -0.000100012636 0.0010175315 0.020823492
000340 6d db 78 bb 65 01 bc 3c d8 e4 15 bc 07 9c 04 3c
       -0.0037972585 0.022949884 -0.009148799 0.00809384
000350 b2 f4 a3 bb c8 85 ac bc 40 94 cc 3c 0d be 3b bc
       -0.005003535 -0.021059886 0.024973035 -0.011458886
000360 15 26 2a 3c 48 14 b0 3c f5 a7 00 bc d9 54 1e 3d
       0.010385056 0.021494046 -0.007852544 0.038655136
000370 9f 9f 1b 3c e3 73 bd 3c c9 95 f9 3b 7d 2c fc 3a
       0.009498506 0.023126548 0.0076167327 0.0019239333
000380 5c dd f0 3a 80 5f 3d bc f7 c0 25 bc 16 23 63 bc
       0.0018376517 -0.0115584135 -0.010116807 -0.013863346
000390 c1 3b 2b 3b 06 c8 2b 3b ef 2d 4c bb 3c 7a 17 3b
       0.0026128145 0.0026211753 -0.0031155308 0.002311363
0003a0 70 36 21 bb 5e d1 70 3c 56 36 22 bb 2d 93 58 bc
       -0.0024599098 0.0146983545 -0.0024751625 -0.013218683
0003b0 15 dc 02 3c c1 9f d4 3c d5 e8 cf bb d8 38 aa 3c
       0.007987042 0.025955083 -0.0063448944 0.020779058
0003c0 7e 23 51 bb 4e bc 24 3c 8b 0b 19 bc f0 b9 a1 bb
       -0.0031912024 0.010054661 -0.009341131 -0.0049354956
0003d0 a5 68 ca 3c 13 4f 15 bc e0 85 b7 3c d6 af 89 bc
       0.024708102 -0.009113091 0.022402704 -0.016807478
0003e0 e7 be 86 bb 6c 36 68 bc c1 e7 a0 bb 40 75 8e bc
       -0.004112113 -0.014173131 -0.0049104397 -0.017389894
0003f0 c8 07 00 bc d6 b8 eb 3a 11 e7 c6 bb 30 ff 19 bd
       -0.007814355 0.0017984163 -0.0060700257 -0.03759688

bias_ih_l0 f4 [576]
000000 c7 32 dc bc 46 75 89 3d ff 73 ad bc 07 74 3a bd
       -0.026879681 0.06711821 -0.021173475 -0.04552081
000010 a7 a8 d7 bb ff f8 60 bd ad b9 2d bb 01 d2 86 3b
       -0.006581384 -0.05492496 -0.0026508376 0.00411439
000020 3b 2e 70 bd 92 ce 64 bd dc b3 a7 bc d6 4c 76 3d
       -0.05863784 -0.055861063 -0.020471506 0.06013187
000030 31 5c 96 bc 2b ae 2a 3d 4a 0f ea bc 8f 29 a2 3b
       -0.018354507 0.041670006 -0.028571744 0.004948802
000040 fa 59 b3 3d e4 c0 e2 3d 77 af b3 bb cc f5 ae bc
       0.08757396 0.11071947 -0.0054835635 -0.02135744
000050 ca 8b 1a bd 13 fd f4 3d 67 61 27 3e 4f de 53 3c
       -0.03773097 0.119623326 0.1634575 0.0129314205
000060 10 65 04 3d 88 0d 7b bc 38 ec af bc cb 67 62 3e
       0.032322943 -0.01532305 -0.021474943 0.22109906
000070 eb 7e 32 3e 1e c0 a4 bc ef ab 10 bc d5 7a 40 bd
       0.17431228 -0.02011114 -0.008830055 -0.04699214
000080 07 1e 62 bd 2e cc 78 3c 2c 37 2d bd 07 29 84 bc
       -0.055204418 0.015185399 -0.042288944 -0.016132845
000090 4b 35 bb bc b9 07 67 bd b0 a7 45 bc 72 ad 0e 39
       -0.02285256 -0.05640385 -0.012063906 0.00013606789
0000a0 58 ed a5 bb ae 97 8b bc 85 a5 04 bd f7 e8 b6 bc
       -0.005063694 -0.0170401 -0.032384414 -0.022327883
0000b0 8c a3 4e bd 24 57 51 3d 51 82 9d 3c 1b 75 54 bb
       -0.05044894 0.051108494 0.019227179 -0.0032418433
0000c0 72 1f e4 bc ad d8 11 3c f4 4e ca 3c 9b 2d 3c bc
       -0.027847026 0.008901757 0.02469585 -0.011485483
0000d0 4e a5 43 3c eb 18 c1 3d 2c 0e 21 3e 63 3d d2 bc
       0.011941267 0.09428581 0.15728062 -0.025664037
0000e0 c0 61 df bc a1 51 8f bc 22 45 8d bc 3c cd a6 3c
       -0.02726829 -0.017494978 -0.01724488 0.020361535
0000f0 76 fc 18 bd 9f 98 e8 3b c4 45 2f 3d 5f 78 3b 3e
       -0.03735014 0.007098272 0.042791143 0.18307637
000100 03 88 71 bb e1 73 0c bd 7f 4e 2d bd c9 f2 eb bc
       -0.003685475 -0.0342902 -0.042311188 -0.028802292
000110 cc da f9 3c c8 08 0b bd 62 bc e5 3c e2 c7 d7 3c
       0.030499838 -0.03394392 0.02804393 0.026340429
000120 31 d7 13 3d b7 76 43 bd 2f bc b3 bc 70 74 e0 3b
       0.036093894 -0.047720637 -0.021940319 0.006849818
000130 2f e9 48 3e 0c a5 f7 bb 19 a0 c8 3c f0 5d 81 bc
       0.19620202 -0.007557517 0.024490403 -0.015791863
000140 96 be 93 bc 17 97 ed bc 9c 9e ea bc d4 9e e8 ba
       -0.018035214 -0.02900271 -0.028640084 -0.001774753
000150 56 d4 07 bd 98 03 40 bc 47 01 94 bc 09 2c 04 bd
       -0.033161484 -0.011719607 -0.018067015 -0.032268558
000160 84 20 f1 bc 88 48 f0 3b 48 2e 60 bc 60 6e 65 3e
       -0.02943445 0.007332865 -0.013682909 0.22405386
000170 ba 16 10 bd 6c 3a 3c bd 0b 2f bf bc 1d 15 04 bc
       -0.035177924 -0.045954153 -0.023337862 -0.008061674
000180 ec ef 0a bd bf 1d 7f bc 45 1e 02 bd 37 19 96 3d
       -0.033920214 -0.015571057 -0.03176715 0.07329028
000190 2f 92 78 bc f3 54 09 bd a0 46 74 bc 15 39 0e 3e
       -0.015171572 -0.03352828 -0.014909416 0.13888963
0001a0 e4 81 c8 3c 85 ed 79 bc f2 f9 63 3d c4 d0 ee bc
       0.024476 -0.015254383 0.05565829 -0.029152282
0001b0 77 3f 36 3d 02 4f 9a bc 12 df 2b bd b0 49 f9 bc
       0.04449412 -0.018836502 -0.041960783 -0.030430645
0001c0 f2 aa e7 bc 84 bc 80 bd 69 50 9f 3d da 57 b0 bc
       -0.028279755 -0.062859565 0.07779009 -0.021526266
0001d0 f5 5e 17 bc 8f 2f 58 3e fc e2 91 bc b2 6a 81 bc
       -0.009238948 0.21111892 -0.01780843 -0.015797947
0001e0 67 ec b0 3d 5c c0 d1 bc fc 03 a7 bc e8 d1 17 39
       0.0863884 -0.02560442 -0.020387642 0.00014478678
0001f0 04 23 14 bd d8 5a af bc 4f 0d a6 bc 0f d8 26 3e
       -0.036166206 -0.021405622 -0.020270018 0.16293357
000200 b8 06 d2 bc fb 80 d7 bc a2 14 85 bc d4 98 34 bd
       -0.02563797 -0.02630662 -0.01624519 -0.04409106
000210 fe 24 41 bd 73 f8 68 bc 28 26 c0 bc b4 3d 40 bc
       -0.04715442 -0.014219391 -0.023455694 -0.011733461
000220 65 e1 0a bd b0 a1 c0 3c fc 87 ad bb 3c 6e c0 39
       -0.03390636 0.023514599 -0.0052957516 0.00036703225
000230 6c ec f2 3a 50 94 58 3a 23 d2 eb bb 74 5c a4 3b
       0.0018533594 0.00082618464 -0.007196681 0.005015904
000240 a9 13 c5 3d a8 2b bf 3a df 60 ad bc b4 a8 1f bd
       0.096228905 0.0014585154 -0.021164356 -0.038979247
000250 4b d8 39 bc 8a 9b 1c bc 8d 10 16 3e fc ce 93 bc
       -0.011343072 -0.009558568 0.14654751 -0.018043034
000260 fa 7b 0b bd 87 2c 19 bd 5f 0d 45 3e 59 82 28 3d
       -0.03405378 -0.03739598 0.19243382 0.041139934
000270 c4 5b a8 bc 2d b2 ac 3d 25 7a 9f bc 2b da 77 bd
       -0.02055157 0.08432422 -0.019467423 -0.060510796
000280 41 40 ae bc d1 09 af bc cc 5b b1 bc 84 44 64 bd
       -0.021270873 -0.021366986 -0.021650217 -0.055729404
000290 e8 e2 c3 bc 70 dd 07 bd b3 48 09 bd 8a f4 4c bc
       -0.023911908 -0.033170164 -0.033516597 -0.0125094745
0002a0 3b 19 bc 3c 02 8c dc bc c9 a7 e0 bc c0 35 8d 37
       0.02296125 -0.02692223 -0.027423756 1.683354e-05
0002b0 03 85 87 3c 18 69 cf bc fe 7b 01 bd b8 2e 3c bc
       0.016542917 -0.025318667 -0.03161239 -0.011485748
0002c0 7d 62 42 bd e7 41 1f bd 51 a1 a4 3c 10 fc 38 bd
       -0.047457207 -0.03888121 0.020096453 -0.04516226
0002d0 c0 b4 60 3c e5 b5 ae bb e0 6d 6d 3d 04 c3 fb 3b
       0.013714969 -0.005331742 0.057966113 0.00768316
0002e0 83 b1 ac bc 01 d4 08 bd 0b b5 23 bd a5 76 64 bd
       -0.021080738 -0.033405308 -0.039967578 -0.05577721
0002f0 0c 70 7c bc 20 71 c2 3d fb 3d 35 bd 59 20 85 bc
       -0.015407573 0.09494233 -0.044248562 -0.016250776
000300 9f 60 66 3e 1b a6 04 3e b5 bc a3 ba c3 f6 b3 3c
       0.22497796 0.12953989 -0.0012492152 0.021968251
000310 97 42 03 3d e5 c1 7b 3d 67 93 69 3d b8 af 99 3d
       0.032045927 0.06146421 0.05702534 0.07504219
000320 66 48 bb 3d 0a 27 e2 3d 08 e2 38 3d 25 26 f0 bd
       0.09144668 0.11042602 0.045137435 -0.117260255
000330 73 2c 54 3e 1d 5c 50 3d f0 a9 dd 3d 26 23 c0 3d
       0.20720081 0.050869096 0.10823429 0.09381704
000340 83 02 2d bb 81 28 e3 3d bc e3 d7 3d 33 8d 34 bd
       -0.0026399202 0.1109171 0.10541484 -0.04407997
000350 53 67 21 3d 25 d8 08 3e c5 e2 98 3d 65 76 c1 bc
       0.03940518 0.13363703 0.07465128 -0.023616025
000360 18 b1 b6 3d be 16 8c 3d 61 b3 7c 3c fb 6b 04 be
       0.08920497 0.06840275 0.015423627 -0.12931816
000370 a5 51 0c be 69 af 5b 3d 99 ee 15 3d f9 a3 19 3e
       -0.1370302 0.05363408 0.036604498 0.15003957
000380 79 72 23 3d 65 3e 1b bb ee d1 ad 3d 0a e5 d6 3d
       0.03990409 -0.0023688313 0.084873065 0.104929045
000390 86 fd 96 3d 6d bf 2d 3d 4d 23 8c 3d 3a 70 3a 3d
       0.073725745 0.042418886 0.068426706 0.045517184
0003a0 29 fc b7 3d 39 42 5d 3d b3 b8 b1 3d ea 62 b1 3d
       0.089836426 0.054018233 0.08677807 0.086614445
0003b0 4f d5 81 3d 79 ff b4 bb 69 a8 2f 3d 80 4a 85 3d
       0.063395135 -0.005523619 0.042885218 0.0650835
0003c0 89 f3 df 3d 28 e5 e6 3d 33 4f 3a 3e 27 e6 9a 3d
       0.109351225 0.11274177 0.18194275 0.07563429
0003d0 5a 9a 58 3d df 7b a5 3d dc a9 9b 3d df 38 ec 3d
       0.052881576 0.08080267 0.076007575 0.11534285
0003e0 47 81 15 3d 96 ae 26 3e eb fb 22 3e 75 9b 8d bd
       0.03650024 0.16277537 0.15916412 -0.06914417
0003f0 63 bd de 3d 6e 4c 80 3b 1e 9d ab 3c 77 91 97 3c
       0.108759664 0.003915361 0.020948943 0.01850198

bias_hh_l0 f4 [576]
000000 ba 69 da bc 74 8a 8a 3d f8 3e ad bc 7b 8a 3b bd
       -0.026661742 0.06764689 -0.02114819 -0.045786362
000010 fe c4 9d bb d7 a8 5e bd 60 29 2f bb 41 32 86 3b
       -0.004814743 -0.054360237 -0.0026727542 0.004095346
000020 8b ea 70 bd f8 41 65 bd 11 70 a7 bc a9 2f 79 3d
       -0.058817428 -0.055971116 -0.02043918 0.060836468
000030 be 3b 95 bc cc 9d 21 3d 3e 64 eb bc a6 6b 99 3b
       -0.018216964 0.039457127 -0.028734323 0.004682022
000040 6a 50 c9 3d d9 2d e3 3d 23 49 b8 bb a6 59 a9 bc
       0.09829791 0.11092729 -0.005623953 -0.02067263
000050 7a cd 1b bd 6f 14 f3 3d 12 4f 24 3e 96 1c 35 3c
       -0.038037755 0.11869132 0.16045788 0.011054179
000060 dd 76 02 3d 04 67 7d bc d8 b2 b4 bc 99 d6 63 3e
       0.031851638 -0.015466455 -0.022057936 0.22249831
000070 1e f1 2b 3e ac 47 9f bc 98 81 08 bc 0c 73 40 bd
       0.16791198 -0.019443356 -0.008331679 -0.046984717
000080 78 e8 62 bd 69 6f 86 3c e3 21 2e bd d1 be 84 bc
       -0.05539748 0.016410546 -0.042512786 -0.01620427
000090 d3 5a c7 bc a7 6f 68 bd c0 02 46 bc ca 74 1f ba
       -0.0243353 -0.056747105 -0.012085617 -0.00060827716
0000a0 d6 5d a5 bb ec 83 8c bc ed 79 04 bd 79 ee ab bc
       -0.0050465865 -0.017152749 -0.03234284 -0.020987736
0000b0 5c 36 4e bd d7 ad 51 3d 6b ba 97 3c 2a 3e 99 3a
       -0.05034481 0.051191177 0.018521508 0.00116915
0000c0 fe 8a e3 bc 8c d7 12 3c 37 59 ca 3c f5 e7 3d bc
       -0.027776238 0.008962523 0.024700744 -0.011590947
0000d0 1d 0e 42 3c 59 df c4 3d 18 00 20 3e 18 11 d4 bc
       0.011844185 0.09612913 0.15625036 -0.025887057
0000e0 77 49 df bc ef 7f 8e bc 62 c2 8e bc 9a cd a9 3c
       -0.02725671 -0.017394988 -0.017426673 0.020727921
0000f0 e8 64 19 bd 45 98 df 3b 7f 90 24 3d e1 73 3a 3e
       -0.037449747 0.006823572 0.040176865 0.18208267
000100 a4 cb 75 bb e1 7e 0c bd 70 0e 2d bd 02 b7 ec bc
       -0.0037505412 -0.03430069 -0.042250097 -0.028895859
000110 5e df f9 3c 80 72 0b bd 3b 76 e6 3c 62 cb d3 3c
       0.030502018 -0.034044743 0.028132549 0.025853816
000120 2a c6 12 3d f4 43 44 bd 30 75 bb bc c3 f2 bd 3b
       0.035833515 -0.047916368 -0.022883028 0.0057967617
000130 ae 16 48 3e 9a 9c fc bb 13 f1 c7 3c 32 2d 83 bc
       0.19539902 -0.007709098 0.024406945 -0.016012762
000140 2d 47 94 bc 5a 8a ed bc 12 2d ea bc e9 cd e6 ba
       -0.018100346 -0.028996635 -0.028585944 -0.0017608973
000150 89 e1 07 bd 52 7c 42 bc f6 25 93 bc b4 af 04 bd
       -0.03317407 -0.011870461 -0.017962437 -0.032394126
000160 fd b2 f0 bc 91 d3 f2 3b 6f 76 5d bc d5 38 6b 3e
       -0.029382223 0.0074104746 -0.013517006 0.22970898
000170 f2 d5 0f bd e7 9d 3c bd 0c 89 a7 bc fd 74 07 bc
       -0.035116144 -0.046049025 -0.020451091 -0.008267638
000180 b5 8d 08 bd e7 a1 82 bc 12 dd 01 bd 37 e3 8d 3d
       -0.033338267 -0.015946342 -0.03170497 0.069281034
000190 23 2d 95 bc af 16 09 bd a4 41 74 bc 1d 51 0a 3e
       -0.01821 -0.0334689 -0.014908228 0.13507505
0001a0 6b 40 c8 3c e1 67 81 bc e1 ea 62 3d 0e d9 ef bc
       0.02444478 -0.015796604 0.05539978 -0.029278304
0001b0 7a 74 3f 3d a2 8a 9b bc 32 0c 2b bd e3 fe f8 bc
       0.04674194 -0.018987004 -0.041759677 -0.030394977
0001c0 20 ae e7 bc e9 d2 80 bd a2 32 8b 3d 72 68 b1 bc
       -0.028281271 -0.06290228 0.06796767 -0.021656249
0001d0 3f 85 1d bc 55 db 60 3e b4 8c 94 bc 4d d9 81 bc
       -0.009614288 0.21958669 -0.018133499 -0.015850687
0001e0 b3 b1 b1 3d 7f 5d d2 bc c6 fa a8 bc 8b 70 e0 3a
       0.086764716 -0.025679348 -0.02062739 0.0017123384
0001f0 9d 20 14 bd 26 7d bf bc a3 5b a2 bc 49 c3 22 3e
       -0.036163915 -0.023375105 -0.019819086 0.15894808
000200 96 62 d2 bc 61 91 d6 bc 14 c9 6b bc 83 b9 34 bd
       -0.025681775 -0.026192369 -0.0143912025 -0.04412223
000210 0a 7e 41 bd 4a 31 69 bc f2 44 c0 bc 8f 5a 3d bc
       -0.04723934 -0.014232943 -0.023470376 -0.011557235
000220 18 9a 0b bd c1 1e ba 3c 9f 45 e5 bb 4a 6f ee 3a
       -0.034082502 0.022719743 -0.006996825 0.0018191126
000230 39 2e 16 3b 9d a4 bf 3a d3 8d 91 bb ab f9 ab 3b
       0.0022915734 0.0014621202 -0.0044419556 0.0052482686
000240 a9 39 ba 3d c9 67 c1 3a 97 87 ad bc a3 c0 18 bd
       0.09093029 0.0014755662 -0.021182818 -0.037293088
000250 72 d5 3b bc 4d 43 29 bc 5a 40 16 3e 70 48 96 bc
       -0.011464464 -0.010330987 0.14672986 -0.018345088
000260 b4 88 09 bd 20 26 19 bd 15 4d 44 3e 05 08 27 3d
       -0.033577636 -0.037389874 0.1917003 0.040779132
000270 34 72 a6 bc 9f f2 b4 3d 4c 5a 9f bc 02 52 76 bd
       -0.020318128 0.08835339 -0.019452237 -0.060136802
000280 31 33 ab bc a2 77 af bc 62 5d b2 bc ae ca 65 bd
       -0.020898433 -0.02141935 -0.021773044 -0.056101494
000290 f7 28 c0 bc ed 55 09 bd 0f 98 0a bd 40 6f 61 bc
       -0.023457034 -0.03352921 -0.03383642 -0.013759434
0002a0 57 5b bc 3c c9 6c db bc f5 14 dc bc f9 14 c0 3a
       0.022992773 -0.026785271 -0.026865462 0.0014654688
0002b0 a5 85 87 3c 8c dc ce bc ad 35 fe bc 04 e1 3b bc
       0.016543219 -0.02525165 -0.031031454 -0.011467222
0002c0 ed ca 42 bd 06 89 1f bd 47 2b b3 3c 33 e1 38 bd
       -0.047556806 -0.038949035 0.021871222 -0.04513664
0002d0 a4 ed 60 3c e5 2e b6 bb 72 5e 86 3d 23 e1 de 3b
       0.013728533 -0.0055597895 0.06560983 0.0068017407
0002e0 6d 27 ac bc b3 3b 05 bd 34 c2 22 bd 02 da 62 bd
       -0.021014893 -0.032527637 -0.039735988 -0.05538369
0002f0 22 02 84 bc 71 07 c2 3d 01 6a 35 bd 88 a8 86 bc
       -0.016114298 0.094740756 -0.044290546 -0.016437784
000300 13 d3 4b 3e 5e 95 eb 3d 68 bd 34 bc 6f e7 33 3c
       0.19904737 0.11503099 -0.011031486 0.010980471
000310 3b 35 e5 3c 42 52 ad 3d c0 27 77 3d 0f a4 c3 3d
       0.027979484 0.08462955 0.060340643 0.09552776
000320 74 bf dc 3d 93 79 cc 3d a8 45 4d 3d 2c 44 16 be
       0.10778704 0.09984126 0.050115258 -0.14674443
000330 69 49 56 3e 72 cf 46 3d e9 f3 df 3d 0d 48 ff 3d
       0.20926441 0.04853768 0.10935194 0.124649145
000340 87 2a c6 3c 7c e7 dd 3d b7 bf d2 3d df a0 a1 bd
       0.0241902 0.10835168 0.10290473 -0.07892012
000350 67 59 46 3d cc 1d e5 3d 6b 85 ba 3d a6 e2 f4 bc
       0.048425104 0.11187324 0.09107479 -0.02989323
000360 b8 db 93 3d ef 94 8c 3d 4d 35 3e 3d 06 d2 df bd
       0.072196424 0.06864344 0.04643755 -0.10928731
000370 c9 5c 0c be 56 75 17 3d da e8 fe 3c 91 fb 1b 3e
       -0.1370727 0.036977135 0.031116892 0.15232684
000380 95 d2 3e 3d 6a 13 d8 3c 9c 64 98 3d 10 6c a6 3d
       0.046587545 0.026376445 0.07441065 0.0812608
000390 52 2e 4d 3d a5 19 27 3d 53 51 ba 3d a1 ed 43 3d
       0.050093003 0.04079594 0.090975426 0.047834042
0003a0 da df bc 3d 27 d9 8b 3d 54 1f d8 3d 50 86 e7 3d
       0.09222384 0.06828528 0.1055285 0.11304915
0003b0 3e 57 bc 3d 94 ea ae 3c 0f 0f 9d 3d ee 35 b4 3d
       0.091963276 0.02135209 0.07668888 0.08799349
0003c0 6a f3 17 3e 0e 0d ad 3d ec 59 4a 3e 22 a5 9e 3d
       0.14838949 0.084497556 0.19760865 0.0774634
0003d0 fb c6 b0 3d 71 47 9d 3d 87 9a 95 3d 39 b4 02 3e
       0.086317025 0.07679642 0.073048644 0.12764062
0003e0 63 a5 37 3d 37 77 1f 3e 33 f5 0d 3e 06 1d 38 bd
       0.04483546 0.1557282 0.13863067 -0.044949554
0003f0 cd 73 d0 3d 21 71 ba bb 9a 61 95 3c 3a 22 12 3d
       0.10178337 -0.0056897555 0.018235017 0.035677172

weight f4 [12, 192]
000000 80 1f ff bd 9b 9d 54 3d 0d 7e 7f bd 4f d1 16 3e
       -0.1245718 0.051908117 -0.06237607 0.14728282
000010 a2 78 08 3d d5 e1 cd bb f5 a5 6c be f3 f9 03 bc
       0.03331817 -0.006283025 -0.23110183 -0.008055198
000020 40 b2 c7 bd 6c 36 6a 3d aa 82 84 3e f8 8a 3c 3d
       -0.09750795 0.057180807 0.2588094 0.04603097
000030 08 0d 0c 3e ae 8b b3 be 60 35 ea bc 74 3e 23 3c
       0.13676846 -0.35067505 -0.028589904 0.00996362
000040 f9 b3 97 3c f8 49 d1 bd 86 c9 ed bd d8 29 34 3e
       0.018518435 -0.102191865 -0.11610703 0.17594087
000050 0e 79 ec bc ad 0d 27 3e 8e 1e 65 be 78 78 8a 3d
       -0.028866317 0.1631381 -0.22374937 0.06761259
000060 89 f2 70 bd cb b1 79 3e 1a 1f a0 3d 26 5c 11 be
       -0.05882505 0.24384229 0.07818432 -0.14195308
000070 ee 31 d8 bd 49 10 b2 3d 2d cd 12 3e 1c 08 b8 3d
       -0.10556398 0.086945124 0.14336081 0.08985922
000080 11 70 12 be 9b fa e3 3d 0b 7c f1 3c 10 1b fa 3d
       -0.14300562 0.111317836 0.029478094 0.12212193
000090 8e c2 5f 3c af 09 b2 3c 5a 2c 2b bb 9d c3 30 3e
       0.013657225 0.021733133 -0.0026118965 0.1726212
0000a0 5f 4c d6 3d 67 2e fe bd 90 1e 93 bd db 9f 87 bd
       0.104637854 -0.12411194 -0.07183564 -0.06622287
0000b0 cd 3d a0 3d df 8e 96 3d cd 1c 7b ba 1e 19 0e be
       0.078242876 0.07351469 -0.0009579182 -0.13876769
0000c0 4e 24 7b 3d da 15 89 be a8 19 70 3d 9e 15 e0 3d
       0.06131392 -0.26774484 0.058618218 0.10941623
0000d0 5c 6b 5a 3b e5 0f a5 3d 3a 40 3b be 2b 37 1e bd
       0.0033328151 0.08059672 -0.18286219 -0.03862683
0000e0 15 fb 1b be 65 a6 82 bd bd 50 a6 3d ce d4 e6 bc
       -0.15232499 -0.063793935 0.08120868 -0.028177645
0000f0 a0 6e 23 bc 1c 16 fe bd 5f c3 2d bb df 2c eb 3d
       -0.0099751055 -0.12406561 -0.0026514155 0.11483168
000100 06 2a aa bd 52 e5 a7 bd 8d cd 2a 3e d4 17 3c 3e
       -0.083087966 -0.08198036 0.16679974 0.18368465
000110 9b b8 00 3e 80 fb dc 3d 66 36 2a bd 68 cf aa 3d
       0.12570421 0.10790157 -0.041555785 0.08340341
000120 26 34 97 bc 6d 09 30 be e0 35 0e 3e b8 1f 1a 3d
       -0.018457484 -0.17191096 0.13887739 0.037627906
000130 35 fd 0d be f1 fb 04 3d a1 62 01 3e 92 ca 41 3e
       -0.13866122 0.032466833 0.1263528 0.1892493
000140 a1 7d 55 3c 7a 5a 68 3d 1d de 90 bd e2 a0 8e 3e
       0.013030441 0.05672691 -0.07073615 0.2785712
000150 de ec fd 3d 26 b1 2c 3e 89 56 50 3d e0 ed c6 3d
       0.123986945 0.16864452 0.050863776 0.0971334
000160 34 9c 0e be b0 1d 3b be 86 5b f3 bc 77 a2 64 3e
       -0.13926774 -0.18273044 -0.029706728 0.223276
000170 45 53 88 3d c7 96 67 3d 14 60 b1 bd cc 43 c9 3d
       0.066565074 0.056540277 -0.086609036 0.09827384
000180 c1 05 af 3d 98 81 65 3e 3f 38 98 bd 80 25 67 3c
       0.08546019 0.22412717 -0.07432603 0.014108062
000190 19 57 b5 bd a6 eb 04 3e 4a b3 4a be b9 21 20 3d
       -0.08854503 0.12980518 -0.19794956 0.03909466
0001a0 53 61 b1 bc 9e 02 19 be 83 80 39 bd 86 b3 37 be
       -0.021652853 -0.14942405 -0.045288574 -0.17939577
0001b0 c4 aa e4 bd cc a5 de bc 0a 59 0d be cc 20 21 bc
       -0.111653835 -0.027178667 -0.13803497 -0.00983448
0001c0 be 51 0f 3d 92 53 c4 bd 9e 95 0d 3c e4 76 e3 bd
       0.034990065 -0.09586252 0.008641629 -0.11106661
0001d0 ac 4e ac bd 73 20 33 3e e5 b6 9f bd 7e 40 e3 3b
       -0.08413443 0.17492847 -0.07798556 0.0069351783
0001e0 69 b9 01 be c6 e0 93 3d 24 11 5c 3c c9 b8 86 3d
       -0.12668385 0.072206065 0.013431821 0.06578214
0001f0 ea 66 1a be 7e 02 d9 bc cb 54 28 3e 18 c4 ce 3c
       -0.15078321 -0.026490446 0.16438596 0.02523999
000200 34 ee 93 3d 63 64 b8 3d 68 01 83 3c b0 82 96 bd
       0.07223168 0.09003522 0.015991881 -0.073491454
000210 6b ef 73 bd 3d 02 80 3e 4e d1 0a be 2c 1e 29 3e
       -0.0595545 0.25001708 -0.13556406 0.16515416
000220 ca e3 c6 bd 33 d5 ff 3d f2 ff 42 bd fe eb b9 bd
       -0.09711416 0.124918364 -0.04760737 -0.09078215
000230 7f 0c 9e bd aa 60 99 bd b5 e1 18 3e fa ff a9 bd
       -0.07717227 -0.0748914 0.1492985 -0.08300777
000240 88 22 a8 3d bf 35 81 3c 45 d3 f1 bd 4e c7 7a 3e
       0.08209711 0.015772698 -0.118078746 0.24490091
000250 7f 69 39 3e 45 37 57 be a5 9c c5 3d ee f5 02 3e
       0.1810665 -0.21017177 0.09649018 0.12789127
000260 24 59 c5 bd 0d 21 34 be 99 17 e8 bd 89 cf 67 be
       -0.09636143 -0.17590733 -0.11332626 -0.22637762
000270 d1 13 81 3d 8f 3e 00 be f3 23 9c 3c 7e 63 ad 3c
       0.06302608 -0.12523864 0.01906011 0.021165606
000280 8e f9 63 3c e8 43 42 be 71 2a 0f 3d 94 c6 ee bd
       0.013914479 -0.18971217 0.034952585 -0.116589695
000290 84 2e 11 3e 9b 3e 87 bd 55 30 11 be 36 54 77 3e
       0.141779 -0.06603738 -0.14178593 0.24153218
0002a0 4c e2 1a be 5d 80 4a bd 05 20 16 be eb a3 ec bd
       -0.15125388 -0.049438823 -0.14660652 -0.11554702
0002b0 9f 63 07 3e a4 9f b9 bd c2 f3 ab bb 6f 86 fc bd
       0.13221596 -0.09063652 -0.005247564 -0.12330329
0002c0 a0 bd 3e be f1 2f c1 bd 24 5d 8c bd 00 ec 9c bd
       -0.18627024 -0.09432972 -0.06853703 -0.07662201
0002d0 22 c9 88 3e 5a 52 27 3e 8f 86 99 bc 8b 18 85 3e
       0.26715952 0.16340008 -0.01874092 0.25995287
0002e0 ff 3c e2 3c ae d4 1c be 06 22 ff bd fe e4 b4 bc
       0.027616976 -0.15315506 -0.12457661 -0.022081848
0002f0 5b b3 f8 3d ab 29 b4 3d 89 1e 90 bb 3e 1a 4b 3e
       0.12143584 0.0879701 -0.0043981713 0.1983423
000300 b5 79 df bd bd 6e c9 3d 7b c8 df bd 8b c7 28 be
       -0.10911886 0.09835575 -0.109269105 -0.1648237
000310 99 cc 16 be 7b 7a 97 bb 3d 68 8a bd 0e 17 8d bb
       -0.14726485 -0.004622755 -0.06758163 -0.004305727
000320 ce 7d a9 bd dd fc 2f be a6 cb 65 bd d0 03 7e 3c
       -0.082759485 -0.17186303 -0.056102417 0.015503839
000330 35 b5 9f 3d d5 bd 00 bd b9 e0 3b bd 4c b6 33 be
       0.077982344 -0.031431038 -0.04586861 -0.1755001
000340 28 ce e7 3d 43 08 87 bd a9 b1 10 3e 06 01 7b 3b
       0.11318618 -0.06593373 0.14130272 0.003830017
000350 0d 03 64 3e 93 70 fe 3d 45 d4 40 be ce b2 f7 3d
       0.22266789 0.124238156 -0.18830974 0.12094651
000360 4e d3 77 bc 99 52 2d 3e 2a 16 e2 3d bd 5f 4f be
       -0.015126063 0.1692604 0.11039384 -0.20251365
000370 16 6f a7 bd 77 36 0c be 95 8d 1a bd 0b 00 ce 3d
       -0.08175485 -0.13692652 -0.03773268 0.10058602
000380 a5 5a 1f 3e 12 1e 7b bc 23 dd 81 3c 83 9c 10 be
       0.15561922 -0.015326994 0.015852517 -0.14122204
000390 50 85 65 3e a1 7e 5b 3e 98 f3 ab 3d a1 4c 50 3e
       0.22414136 0.21435024 0.08396071 0.20341732
0003a0 a1 ce 94 bd 36 75 d8 3d 26 3f 2b be 49 07 3d 3e
       -0.07265974 0.10569231 -0.16723308 0.1845981
0003b0 f6 6a 2d 3e 2e 5a 24 3d be 2b 28 3e 92 b9 4c bd
       0.16935334 0.040125065 0.16422936 -0.04998166
0003c0 20 04 b6 3d 45 2f 9c 3d 32 24 10 3e a6 a8 38 3e
       0.088875055 0.076262034 0.14076307 0.18033084
0003d0 6f 67 13 bc d4 d6 d9 3d 0e 45 b7 bd fb 7d 2f bd
       -0.008996828 0.10636678 -0.08948718 -0.042844754
0003e0 42 b9 d6 3d bf ce d7 bd c1 a4 ee 3c 8d 86 a7 bd
       0.10484554 -0.105374806 0.029131295 -0.081799604
0003f0 63 3f 3c bc 1c 57 8b 3c 61 d0 d9 3d f0 df c9 3d
       -0.011489722 0.01700931 0.10635448 0.09857166

bias f4 [12]
000000 c8 91 06 3e 6d 79 0e 3e 9e d2 8a 3d 6a df df 3d
       0.13141549 0.13913508 0.06778453 0.10931285
000010 3d e1 00 3e c6 94 ae 3c 62 a6 98 3b e0 e8 00 3d
       0.12585922 0.021311175 0.0046585063 0.031472087
000020 9b 04 37 bb ed 91 3c 3d 54 00 b8 3d 19 5e da 3d
       -0.002792633 0.046037603 0.089844376 0.10662479
